brainu/app/src/main/ml/Model.tflite (tflite, 708592 bytes, 9 tensors)

sequential/conv2d/BiasAdd/ReadVariableOp/resource f4 [32]
-0.0024594197 -0.0951162 -0.039257538 -0.015543643 0.01408323 -0.047119334 0.057810813 -0.04996306
0.016070243 0.0049973377 -0.056987785 0.017398693 0.029683242 -0.058841515 0.02524666 -0.04886048
0.02848105 -0.013359508 0.03202514 0.024362449 -0.031074343 0.040077567 0.018645326 -0.019636309
0.0045142835 -0.0029090734 0.027518917 0.042228557 -0.0035288446 -0.061978824 -0.047250308 0.06918877
00000000: 372e 21bb 48cc c2bd 83cc 20bd c4aa 7ebc
00000010: 59bd 663c 3400 41bd 08cb 6c3d 11a6 4cbd
00000020: bea5 833c b5c0 a33b 066c 69bd b487 8e3c
00000030: 452a f33c cd03 71bd 15d2 ce3c ed21 48bd
00000040: 1751 e93c d6e1 5abc cb2c 033d c293 c73c
00000050: 9f8f febc 6028 243d 15be 983c 53dc a0bc
00000060: 8eec 933b 27a6 3ebb 5a6f e13c daf7 2c3d
00000070: 3044 67bb 82dd 7dbd 8a89 41bd d8b2 8d3d

sequential/conv2d_1/BiasAdd/ReadVariableOp/resource f4 [32]
-0.034266844 -0.0036112694 -0.02845571 -0.02249639 -0.034429874 -0.030589009 0.049239684 -0.021080734
-0.02143941 -0.011377533 0.015492974 -0.024482407 -0.019717071 0.002744652 -0.027794302 0.00037781335
-0.101425916 0.017477388 -0.0053699547 -0.039874114 -0.019765496 0.0010813545 0.0046211327 -0.011344154
-0.0625789 0.014484937 -0.015148434 -0.025695093 0.0008046942 -0.035147246 0.06082433 0.0034698364
00000000: 645b 0cbd 0cab 6cbb f31b e9bc 594a b8bc
00000010: 5706 0dbd cd95 fabc 8daf 493d 81b1 acbc
00000020: b4a1 afbc d568 3abc 3ed6 7d3c 548f c8bc
00000030: b285 a1bc 9fdf 333b e0b0 e3bc 4015 c639
00000040: 64b8 cfbd bd2c 8f3c 72f6 afbb 0a53 23bd
00000050: 40eb a1bc 3cbc 8d3a df6c 973b d5dc 39bc
00000060: 5e29 80bd 3b52 6d3c 2331 78bc 847e d2bc
00000070: 1df2 523a 8ff6 0fbd ef22 793d 3266 633b

sequential/conv2d_2/BiasAdd/ReadVariableOp/resource f4 [64]
0.01590795 0.029874824 -0.029726256 -0.00263375 -0.0077586253 0.02585341 0.004305196 0.024453646
0.04707929 0.06004581 -0.024788475 -0.01756832 -0.033626158 0.005035146 0.008065946 -0.037697557
0.025117539 0.022029424 0.033486467 -0.010173105 -0.003236818 0.029319514 0.019874971 0.017554231
-0.013143772 -0.009449778 0.015814563 -0.017017517 0.048029616 0.042259596 0.014083874 0.024686605
0.016567027 -0.041275885 -0.014973893 -0.0495635 0.008977848 -0.013660275 0.021772034 0.03966298
-0.015668586 0.04185341 0.068566605 -0.03848834 0.01928653 0.0161234 0.065345846 0.020766081
0.045805845 -0.029614275 0.0036600865 0.010431397 -0.020445844 -0.0012330413 0.014110259 0.023109538
0.040008172 0.043474585 0.0072760233 0.061525002 0.023204995 -0.00018411275 0.018483235 0.078321874
00000000: 6451 823c 0cbc f43c 7a84 f3bc fe9a 2cbb
00000010: 113c febb 88ca d33c 9a12 8d3b 0353 c83c
00000020: 37d6 403d 98f2 753d 3311 cbbc 70eb 8fbc
00000030: 95bb 09bd defd a43b 0827 043c c168 1abd
00000040: 4cc3 cd3c 0d77 b43c 1b29 093d 18ad 26bc
00000050: cb20 54bb 7a2f f03c d6d0 a23c e4cd 8f3c
00000060: fa58 57bc 3ed3 1abc 8b8d 813c 5268 8bbc
00000070: b4ba 443d 6618 2d3d 0dc0 663c 903b ca3c
00000080: 93b7 873c e710 29bd 0f55 75bc 1903 4bbd
00000090: d317 133c 59cf 5fbc 445b b23c a675 223d
000000a0: 685b 80bc 7b6e 2b3d a66c 8c3d f3a5 1dbd
000000b0: c9fe 9d3c 3815 843c 0bd4 853d a11d aa3c
000000c0: e99e 3b3d a399 f2bc 10de 6f3b 73e8 2a3c
000000d0: 0b7e a7bc 009e a1ba b72e 673c 3750 bd3c
000000e0: 9cdf 233d 6812 323d b56b ee3b a401 7c3d
000000f0: 6718 be3c 640e 41b9 276a 973c 3867 a03d

sequential/dense/BiasAdd/ReadVariableOp/resource f4 [64]
-0.0146802375 -0.0014255061 -0.005105807 0.025263937 -0.0030404765 0.017390499 -0.0020393573 -0.008185327
-0.0084250495 -0.0059993854 -0.009712904 -0.007036321 -0.010144205 -0.022743883 -0.008816001 -0.0070569464
0.012562822 -0.0060041216 -0.0014010076 -0.0072900723 0.0007482049 -0.003938641 -0.0060049705 -0.0058025266
-0.004116656 0.009079355 0.009787558 -0.0060038553 -0.010298127 -0.009812242 -0.012099564 -0.010106056
-0.014089232 -0.009084885 -0.005287068 0.0023379948 0.018847924 -0.0060041356 -0.0039238585 -0.015297016
-0.0013458871 -0.0017802253 -0.010960116 0.024082819 0.025078049 0.015905898 -0.006005194 -0.002524353
-0.014957004 0.0030661914 -0.0008289403 0.0071438123 -0.005306592 -0.009037792 0.0044185133 -0.01751158
-0.00784456 0.030010434 -0.007333773 0.005181791 -0.01091501 -0.0004804254 -0.005654661 -0.0062790154
00000000: 6185 70bc 0cd8 baba 9d4e a7bb 51f6 ce3c
00000010: bb42 47bb 8576 8e3c bda6 05bb c01b 06bc
00000020: 3809 0abc 7e96 c4bb df22 1fbc f090 e6bb
00000030: e133 26bc 6151 babc fd70 10bc f53d e7bb
00000040: 4bd4 4d3c 39be c4bb 04a2 b7ba 8fe1 eebb
00000050: 2e23 443a b70f 81bb 58c5 c4bb 1f23 bebb
00000060: 03e5 86bb 93c1 143c fe5b 203c fdbb c4bb
00000070: 7ab9 28bc 87c3 20bc 403d 46bc df93 25bc
00000080: 86d6 66bc c5d8 14bc 243f adbb 0b39 193b
00000090: f666 9a3c 57be c4bb b693 80bb 56a0 7abc
000000a0: 7a68 b0ba 7356 e9ba 0f92 33bc 5549 c53c
000000b0: 7b70 cd3c 164d 823c 38c7 c4bb 9e6f 25bb
000000c0: 390e 75bc 28f2 483b 3e4d 59ba a416 ea3b
000000d0: ece2 adbb 3f13 14bc 2dc9 903b 7274 8fbc
000000e0: 7886 00bc 71d8 f53c 2650 f0bb 03cc a93b
000000f0: dfd4 32bc 9be1 fbb9 bc4a b9bb 33c0 cdbb

sequential/dense/MatMul f4 [64, 2304]
-0.0037348836 -0.054834556 0.025413318 -0.025510754 -0.059595317 -0.036313806 0.039057333 -0.02484505
-0.03462625 0.018807547 -0.010775942 -0.020064011 0.03066086 0.029902907 -0.026747659 0.011133749
0.027331496 0.01548536 -0.019047547 0.03013689 -0.053088933 -0.00065963436 -0.030957134 -0.0041821008
-0.06996153 -0.019299714 0.011745118 -0.050607134 0.022304682 -0.008529766 -0.034798592 -0.014716254
-0.022540841 -0.016570233 -0.044093885 -0.0020816922 0.017852744 0.02342704 -0.0067074015 0.016205097
-0.044669364 0.002283513 0.022435956 -0.011590101 -0.03800276 -0.058521733 -0.017734427 -0.05623601
0.009249084 -0.0041396134 -0.033632193 -0.06361746 -0.062348526 -0.00089708634 -0.059129875 0.019468985
-0.045675974 -0.064328045 -0.061538953 -0.003012621 0.0055010426 0.015816994 0.03557388 -0.02002166
0.026026554 0.03641875 0.019819787 -0.024966331 -0.059563592 0.015181192 0.014481002 0.016555484
0.0024231724 0.021250373 0.010565992 -0.015940253 -0.013930939 0.028199827 0.04097086 -0.004723248
-0.045710914 0.029064063 0.012089679 0.013349316 0.0012648061 -0.008439367 0.008914914 -0.04274883
-0.023560608 -0.0343405 -0.011224784 0.011721739 -0.002153406 -0.02111491 -0.07550404 -0.050476626
0.008648282 -0.040000208 -0.0387698 0.01154574 0.04190446 0.027928606 -0.007617086 -0.056508303
-0.03470601 0.015397154 -0.050225213 -0.06919536 -0.049039565 -0.054731224 -0.01318067 0.012509898
-0.0072065606 -0.04453701 -0.0447254 -0.032938637 0.039056435 -0.05651443 -0.07794852 0.032424908
-0.08096749 -0.0070161037 -0.021826105 0.022388162 -0.03557974 0.043452132 -0.029097697 -0.0040734466
-0.055367842 -0.078291774 -0.0043186224 0.04031746 -0.04252674 -0.012207529 0.017275201 -0.064587586
-0.028982963 -0.030054284 0.034003846 0.04235678 0.01953531 0.03431806 0.042480465 -0.0013805642
0.0074908584 0.045728005 0.039872427 -0.037597645 -0.036160696 -0.05322266 0.030832224 0.024040746
-0.06428953 0.035893545 -0.034081947 0.036609612 -0.051625617 -0.01584422 0.034616537 -0.042232435
-0.001805684 0.037112266 -0.05152538 -0.07089141 0.0016991682 -0.047016818 0.006226037 -0.06323177
-0.04910249 -0.008620685 0.0139485225 -0.012192902 0.020419206 0.041670818 -0.0023924613 -0.057018563
-0.0021628279 -0.015990935 -0.010994613 0.0062256083 -0.015028202 0.0027810289 -0.03782742 0.025365237
-0.0067937374 -0.023470895 -0.002223339 -0.011922241 -0.049666997 -0.026212182 -0.047978457 0.039390255
-0.00063206983 -0.012665113 -0.01245503 0.038664497 -0.010816045 -0.044782355 0.01736556 -0.048470564
0.0438706 0.012878683 -0.037497826 -0.04381856 0.0174011 -0.0145181455 -0.051644024 -0.052532785
0.002281856 0.03789437 -0.022232462 0.004185095 0.03509238 -0.041036718 0.04074888 -0.034326352
-0.03715527 -0.047615588 -0.06603201 -0.022811774 -0.02909293 0.010030886 -0.03302129 0.030351983
-0.0022267215 0.024257988 -0.055029288 0.017741848 0.017904902 0.042086717 -0.053192094 -0.075242266
-0.020002592 0.026443202 -0.029979575 -0.05299948 0.007746153 -0.03300795 -0.04042733 -0.053201817
0.008838028 0.019904435 -0.034108132 -0.01745289 0.0107451035 -0.06883681 -0.06422108 0.0023858696
-0.002247543 -0.07587231 0.009591027 -0.022042276 -0.060224965 -0.05003891 -0.024443239 0.042992868
00000000: f3c4 74bb 339a 60bd 972f d03c eefb d0bc
00000010: 381a 74bd c9bd 14bd 95fa 1f3d d987 cbbc
00000020: 41d4 0dbd 4912 9a3c 948d 30bc 485d a4bc
00000030: 7c2c fb3c f1f6 f43c e81d dbbc 546a 363c
00000040: 4de6 df3c 4fb6 7d3c 9a09 9cbc a4e1 f63c
00000050: c873 59bd 50eb 2cba d199 fdbc 010a 89bb
00000060: fe47 8fbd 6f1a 9ebc 986e 403c 6d49 4fbd
00000070: 4fb8 b63c 6fc0 0bbc f888 0ebd 711c 71bc
00000080: 92a7 b8bc 4cbe 87bc ca9b 34bd 006d 08bb
00000090: eb3f 923c 10ea bf3c c3c9 dbbb 8dc0 843c
000000a0: 39f7 36bd fea6 153b 9ccb b73c 68e4 3dbc
000000b0: c8a8 1bbd 7cb4 6fbd ca47 91bc bb57 66bd
000000c0: 7889 173c 98a5 87bb e9c1 09bd df49 82bd
000000d0: 2b61 7fbd 722a 6bba 2b32 72bd 6c7d 9f3c
000000e0: bb16 3bbd 6cbe 83bd 4510 7cbd 656f 45bb
000000f0: 1742 b43b a492 813c ebb5 113d 7704 a4bc
00000100: a435 d53c d42b 153d 1b5d a23c 3186 ccbc
00000110: f4f8 73bd 89ba 783c ba41 6d3c 5e9f 873c
00000120: 16ce 1e3b 4315 ae3c fc1c 2d3c 2295 82bc
00000130: 983e 64bc 5303 e73c 0fd1 273d 7ac5 9abb
00000140: 5e3b 3bbd c217 ee3c ca13 463c 17b7 5a3c
00000150: dac7 a53a 4545 0abc dc0f 123c 6619 2fbd
00000160: 2d02 c1bc a0a8 0cbd 28e8 37bc 890c 403c
00000170: 2820 0dbb 2df9 acbc dda1 9abd 94c0 4ebd
00000180: 86b1 0d3c 42d7 23bd 15cd 1ebd 582a 3d3c
00000190: 03a4 2b3d 88ca e43c c098 f9bb 4075 67bd
000001a0: e427 0ebd 5844 7c3c f4b8 4dbd 4cb6 8dbd
000001b0: b6dd 48bd d92d 60bd bdf3 57bc 51f6 4c3c
000001c0: 0325 ecbb 716c 36bd fb31 37bd aaea 06bd
000001d0: a4f9 1f3d ad7b 67bd 79a3 9fbd fbcf 043d
000001e0: 49d2 a5bd 58e7 e5bb a9cc b2bc 6167 b73c
000001f0: 10bc 11bd ddfa 313d 4b5e eebc 8c7a 85bb
00000200: 64c9 62bd 7057 a0bd 3b83 8dbb ec23 253d
00000210: 8530 2ebd 1602 48bc b984 8d3c 7f46 84bd
00000220: ae6d edbc 6734 f6bc 9e47 0b3d 4e7e 2d3d
00000230: 8408 a03c 1891 0c3d ffff 2d3d 0cf4 b4ba
00000240: e075 f53b 4a4d 3b3d 4551 233d fdff 19bd
00000250: 3d1d 14bd 0100 5abd dc93 fc3c 19f1 c43c
00000260: 3baa 83bd 1c05 133d 8399 0bbd f6f3 153d
00000270: 6275 53bd bdcb 81bc 12ca 0d3d ebfb 2cbd
00000280: b3ac ecba 0803 183d 470c 53bd 842f 91bd
00000290: a0b6 de3a b594 40bd c903 cc3b a97f 81bd
000002a0: b11f 49bd c63d 0dbc 5888 643c bdc4 47bc
000002b0: 2e46 a73c 05af 2a3d d7ca 1cbb 4c8c 69bd
000002c0: 3bbe 0dbb 6cff 82bc c022 34bc 3000 cc3b
000002d0: d938 76bc ec41 363b edf0 1abd c2ca cf3c
000002e0: 009e debb 0946 c0bc 70b5 11bb 8155 43bc
000002f0: 9f6f 4bbd eeba d6bc 0f85 44bd ad57 213d
00000300: 7db1 25ba 5681 4fbc 2f10 4cbc aa5e 1e3d
00000310: c835 31bc b46d 37bd 3842 8e3c 1289 46bd
00000320: a9b1 333d 1d01 533c 5297 19bd 177b 33bd
00000330: c08c 8e3c 84dd 6dbc af88 53bd 9e2c 57bd
00000340: 318b 153b 2037 1b3d da20 b6bc 1f23 893b
00000350: 07bd 0f3d 1e16 28bd 4ce8 263d ca99 0cbd
00000360: 2030 18bd 9008 43bd ca3b 87bd c2df babc
00000370: 4c54 eebc 9658 243c 5541 07bd b9a4 f83c
00000380: 30ee 11bb b0b8 c63c 6466 61bd 5a57 913c
00000390: 4dad 923c 1f63 2c3d f4df 59bd 9e18 9abd
000003a0: 7adc a3bc 6a9f d83c ba97 f5bc fc15 59bd
000003b0: 71d3 fd3b 5833 07bd 2197 25bd 26ea 59bd
000003c0: 60cd 103c a00e a33c f8b4 0bbd 5df9 8ebc
000003d0: 3b0c 303c 50fa 8cbd 5786 83bd 405c 1c3b
000003e0: 844b 13bb f162 9bbd af23 1d3c 0192 b4bc
000003f0: 74ae 76bd 9af5 4cbd 303d c8bc 4a19 303d

sequential/dense_1/MatMul f4 [1, 64]
0.12990735 0.18836091 -0.3107498 0.13570452 -0.17424808 0.20184252 -0.15679885 0.24877693
-0.2017653 0.02034942 0.02829048 0.19337896 -0.25412044 -0.18358919 -0.38186175 -0.2940732
0.40340704 0.28797096 -0.31058654 -0.26396537 0.26569667 -0.1249644 0.28433856 -0.20991862
-0.2163336 0.22152537 0.36279127 0.09247316 -0.10547253 -0.26772127 -0.15378094 0.24893992
0.062123593 -0.31008393 -0.20745827 -0.34339678 0.28147233 0.23626055 -0.24957378 -0.15061533
-0.38894382 -0.3953435 0.10426186 0.28284863 0.18366508 0.36589292 0.27418 -0.17489898
0.0055369977 -0.18660012 -0.29148978 0.26286072 -0.4308728 -0.13897412 -0.2346901 -0.26118165
-0.15163408 0.12436448 -0.20071286 0.35137132 -0.20583776 0.30077577 -0.27022663 0.118035294
00000000: 6f06 053e afe1 403e 991a 9fbe 20f6 0a3e
00000010: 176e 32be ceaf 4e3e e18f 20be 61bf 7e3e
00000020: 909b 4ebe d4b3 a63c 70c1 e73c 2205 463e
00000030: 131c 82be cefe 3bbe 6283 c3be c390 96be
00000040: 5e8b ce3e ee70 933e 3305 9fbe 7826 87be
00000050: 6509 883e 56ed ffbd d394 913e e8f4 56be
00000060: 8e86 5dbe 8cd7 623e c7bf b93e 9162 bd3d
00000070: fb01 d8bd c312 89be c078 1dbe 1bea 7e3e
00000080: 4f75 7e3d 52c3 9ebe f16f 54be b4d1 afbe
00000090: 241d 903e 49ee 713e 4590 7fbe e83a 1abe
000000a0: a523 c7be 776a cabe 3e87 d53d 89d1 903e
000000b0: b312 3c3e 5156 bb3e 5261 8c3e b818 33be
000000c0: b46f b53b 1a14 3fbe 263e 95be ae95 863e
000000d0: 5c9b dcbe 3b4f 0ebe 9a52 70be 9ab9 85be
000000e0: f745 1bbe ceb2 fe3d ac87 4dbe f1e6 b33e
000000f0: 22c7 52be 48ff 993e 255b 8abe 7dbc f13d

sequential/conv2d/Conv2D f4 [32, 3, 3, 3]
0.08553498 -0.16262996 -0.13192521 -0.0428972 -0.16871054 -0.061322607 -0.043897647 0.040968414
-0.08435586 0.22480217 0.18855703 0.12249259 -0.0008829027 0.17116262 -0.024949327 -0.1663558
0.013543071 -0.014257511 0.06080201 -0.15970552 -0.13710517 -0.050020948 -0.045446686 0.061061732
-0.009021837 -0.099952616 0.01495517 0.036712475 0.1096695 0.10358936 0.10281844 -0.0060613933
0.12348498 0.013843577 -0.07033972 -0.054343503 0.032516345 0.15759067 0.17847529 0.1648944
0.17816946 0.1069868 0.040511515 -0.09881469 0.06911493 -0.082227334 0.065551765 0.059683394
0.025473053 0.07335629 -0.07751932 -0.10002302 -0.07631019 0.033653606 0.027719732 -0.14555413
0.063638635 0.051877007 -0.07789349 0.009540698 0.010204159 -0.05712058 -0.17838064 -0.12211113
-0.13320668 0.041345343 0.02493152 0.065655306 0.12531707 -0.07247975 0.055153374 -0.102739096
0.14246252 0.1377426 -0.053329136 0.013019722 0.018022835 0.002203885 0.10972203 0.061412025
0.124148384 0.1324944 -0.00514214 0.011321892 -0.013394116 -0.020041555 0.055211723 -0.18138705
-0.1801075 -0.18954973 0.03879672 0.01764492 0.14874095 0.16537103 0.027798355 0.18038057
0.083854295 0.006063831 -0.06289667 0.017155383 -0.011070073 -0.13194749 0.14280735 0.1238834
-0.037522078 -0.09872973 0.0005844098 0.02194534 -0.05500837 -0.0011416922 0.08957888 0.044874072
0.13750331 -0.095526755 -0.07918707 0.0155872395 -0.082382016 -0.032022398 -0.0023947677 0.014756193
0.029163374 -0.091627255 0.12697093 0.11542403 0.17628925 0.12719873 -0.1168752 -0.076345116
-0.17676465 -0.14700402 -0.14198992 -0.050512668 0.060773898 0.1715655 0.12328648 0.045681648
-0.060505755 -0.0017566205 0.008342103 0.15035443 0.17700805 0.08586751 0.07053926 -0.065295964
0.13742873 0.12578344 0.12924595 -0.0206517 0.04665539 0.03761534 0.059137005 0.13191418
0.17136396 -0.12066868 -0.13466148 -0.040700607 0.13299377 0.01793586 -0.13764644 -0.15149531
-0.106125005 -0.15014145 0.12420465 0.0469041 0.058917355 0.19712342 -0.03792639 0.1490916
0.17204536 0.05673471 -0.03456255 -0.092525095 -0.18170123 0.021390611 -0.21056084 -0.10775338
-0.12691188 -0.19062793 -0.077412575 0.008569149 -0.022980073 0.033885725 -0.06460375 0.04146201
0.029906202 0.0023710884 -0.027289664 -0.037530888 -0.018745363 0.13115045 0.043812755 0.19456774
0.057501137 0.000414742 0.04510842 -0.012308078 0.123131305 0.13963236 0.16117385 0.18019913
0.15651466 -0.04249088 -0.10629551 -0.061338905 -0.094515264 -0.03546214 -0.17932504 -0.028522689
0.13757846 0.02353198 -0.034066897 -0.11750972 -0.058403466 0.02708141 0.09485297 -0.12966895
0.029750943 -0.21972017 -0.12171544 0.0456369 -0.096029975 -0.008917957 0.08806033 -0.037358034
-0.0008058269 0.03542871 -0.16259857 0.06936129 0.005814686 -0.051013224 0.049087185 0.049539533
-0.022827806 0.1273195 -0.04435185 -0.042960133 0.09735559 0.07751185 0.18374692 0.11007007
-0.034836635 -0.11137799 -0.13619067 0.12234777 0.061412863 0.13356683 0.04640626 0.043194644
0.005072601 -0.19291902 -0.17706998 -0.15662296 0.11316872 0.07666933 -0.09905996 0.14952135
00000000: f72c af3d 7888 26be 6717 07be f9b4 2fbd
00000010: 75c2 2cbe 6a2d 7bbd 05ce 33bd 7fce 273d
00000020: c4c2 acbd 8a32 663e 1815 413e 65dd fa3d
00000030: 9972 67ba 4145 2f3e 8862 ccbc 2d59 2abe
00000040: c2e3 5d3c 5698 69bc 870b 793d d889 23be
00000050: 4c65 0cbe c4e2 4cbd 4e26 3abd de1b 7a3d
00000060: 54d0 13bc f5b3 ccbd 8806 753c d25f 163d
00000070: 679a e03d a926 d43d 7992 d23d a79e c6bb
00000080: b1e5 fc3d 2cd0 623c 450e 90bd 4b97 5ebd
00000090: dc2f 053d 735f 213e 3ac2 363e 14da 283e
000000a0: 0e72 363e e51b db3d 67ef 253d 5b5f cabd
000000b0: 218c 8d3d ce66 a8bd 0140 863d 9376 743d
000000c0: ddac d03c d33b 963d 73c2 9ebd ded8 ccbd
000000d0: 8448 9cbd 5dd8 093d 7e14 e33c 240c 15be
000000e0: f954 823d fc7c 543d 9f86 9fbd 9650 1c3c
000000f0: 582f 273c 45f7 69bd 6aa9 36be 6615 fabd
00000100: 5567 08be bc59 293d 303d cc3c 4a76 863d
00000110: 1e53 003e 4370 94bd 81e8 613d e068 d2bd
00000120: b2e1 113e 650c 0d3e a76f 5abd ac50 553c
00000130: a0a4 933c 0e6f 103b f2b5 e03d 2d8b 7b3d
00000140: 8241 fe3d 9dac 073e 667f a8bb 757f 393c
00000150: ff72 5bbc 302e a4bc b025 623d 87bd 39be
00000160: 1a6e 38be 5319 42be 4fe9 1e3d 148c 903c
00000170: 8c4f 183e 0657 293e 60b9 e33c afb5 383e
00000180: cdbb ab3d 1ab3 c63b f8cf 80bd 7289 8c3c
00000190: 405f 35bc 3e1d 07be 173c 123e 94b6 fd3d
000001a0: c0b0 19bd d032 cabd 1433 193a b7c6 b33c
000001b0: 7550 61bd d5a4 95ba 2275 b73d e0cd 373d
000001c0: abcd 0c3e 88a3 c3bd d52c a2bd 9f61 7f3c
000001d0: e7b7 a8bd eb29 03bd 89f1 1cbb f6c3 713c
000001e0: 07e8 ee3c 12a7 bbbd ab04 023e 6f63 ec3d
000001f0: 2b85 343e 6240 023e 445c efbd d45a 9cbd
00000200: cb01 35be 3988 16be ce65 11be 5fe6 4ebd
00000210: 0dee 783d deae 2f3e 9f7d fc3d ae1c 3b3d
00000220: e2d4 77bd 673e e6ba 51ad 083c 83f6 193e
00000230: 9941 353e 4edb af3d e376 903d e4b9 85bd
00000240: 1eba 0c3e 60cd 003e 0d59 043e c12d a9bc
00000250: b919 3f3d 8b12 1a3d a539 723d 8314 073e
00000260: 097a 2f3e 2421 f7bd b3e4 09be aeb5 26bd
00000270: 852f 083e 3aee 923c 30f3 0cbe 9621 1bbe
00000280: 1158 d9bd aebe 19be 025f fe3d 831e 403d
00000290: 5353 713d b9da 493e b458 1bbd 78ab 183e
000002a0: a92c 303e a862 683d 7691 0dbd cc7d bdbd
000002b0: e30f 3abe 5d3b af3c 439d 57be cead dcbd
000002c0: 30f5 01be f833 43be 7c8a 9ebd 9e65 0c3c
000002d0: b540 bcbc c2cb 0a3d f94e 84bd 12d4 293d
000002e0: dafd f43c 4364 1b3b 938e dfbc fdb9 19bd
000002f0: e08f 99bc 4e4c 063e 0175 333d c43c 473e
00000300: 5086 6b3d bb71 d939 9bc3 383d d2a7 49bc
00000310: 442c fc3d c9fb 0e3e c20a 253e 1f86 383e
00000320: 6145 203e eb0a 2ebd 76b1 d9bd 813e 7bbd
00000330: 3891 c1bd c040 11bd fca0 37be 6aa8 e9bc
00000340: 5ee1 0c3e 24c6 c03c bb89 0bbd f0a8 f0bd
00000350: 7938 6fbd d5d9 dd3c 4642 c23d f0c7 04be
00000360: 40b8 f33c 53fe 60be f245 f9bd c2ed 3a3d
00000370: 5dab c4bd 9f1c 12bc f958 b43d bd04 19bd
00000380: 213e 53ba b21d 113d 3d80 26be 4b0d 8e3d
00000390: 1f89 be3b 3ef3 50bd a50f 493d f7e9 4a3d
000003a0: 6101 bbbc 0b60 023e 49aa 35bd f7f6 2fbd
000003b0: 5e62 c73d 88be 9e3d 2728 3c3e 6b6c e13d
000003c0: dcb0 0ebd 251a e4bd 9175 0bbe 7891 fa3d
000003d0: 0e8c 7b3d bec5 083e 7e14 3e3d deec 303d
000003e0: 1038 a63b 908c 45be d551 35be c561 20be
000003f0: 00c5 e73d cf04 9d3d f3df cabd 201c 193e

sequential/conv2d_1/Conv2D f4 [32, 3, 3, 32]
-0.06492908 -0.21039303 0.16140069 -0.15090679 -0.14862068 -0.24028729 -0.04374604 -0.15261748
-0.05252655 -0.23338707 0.023563178 -0.022512697 0.106410064 -0.12095504 -0.1458691 -0.208296
0.098482996 -0.16337661 0.03644208 -0.0010477147 0.09452476 0.03850981 0.029146725 0.037523557
-0.013753298 0.14635396 -0.01745496 0.028819228 0.09791489 -0.19277605 -0.040514804 0.08312579
0.025925444 -0.089211404 0.13773414 -0.10348446 -0.14321485 -0.15908927 0.022502061 -0.12694538
-0.042796127 -0.294596 -0.03970036 0.06141007 0.1001738 -0.06842218 -0.003112195 -0.11187804
-0.03804729 -0.14411202 0.06202932 0.072857 -0.015522359 0.15791099 -0.098123506 -0.3313276
-0.2075603 0.0015924156 -0.06296335 0.13100544 0.10502047 -0.22372589 0.03627293 0.0049768575
-0.18233544 0.050203428 -0.065420285 -0.050264213 0.038893946 0.117076606 -0.038119286 -0.08242327
-0.08181201 -0.19230543 -0.057818223 0.18980533 0.08271321 0.043230023 0.0005269754 -0.010722478
0.09056942 -0.08171226 -0.10062227 -0.15476215 -0.029864145 -0.09527578 -0.06782928 -0.17853229
-0.012820902 0.09938715 0.13721532 0.053080916 0.08829588 -0.1867741 -0.096215114 -0.029499719
-0.06477513 -0.05844961 0.12539594 0.23506986 0.26853228 -0.02530165 0.1442497 0.01678544
0.21031247 0.16567346 0.20250036 0.050139803 0.1404537 0.069918126 0.09188318 -0.024653876
0.2640412 0.19580972 -0.08705782 0.05361694 0.21487744 -0.1513007 0.1770652 0.071783476
0.0059799724 -0.0010965435 0.12093417 -0.08686406 0.043719348 0.015515326 0.060060244 0.1851153
0.19156672 0.06916222 0.037979346 0.050161667 -0.07676899 0.06225232 0.11982389 0.08871765
0.21218358 -0.14708003 0.1179531 -0.086061835 -0.09584391 0.03040609 0.0729553 0.1074528
0.23115991 -0.032262992 0.106690384 0.08021658 0.0540979 -0.040636744 0.025270412 -0.0033026175
-0.13215928 -0.08024699 -0.09618451 0.09204791 -0.048679926 0.05092549 0.10410125 0.14188877
-0.054463197 -0.22351405 -0.036581177 0.019676384 -0.07387983 0.1127012 -0.01688155 0.009535554
-0.062583946 0.09430075 -0.06736769 0.056928292 -0.13131806 0.06636774 0.053431995 -0.055275306
0.27102736 -0.10011276 0.040555865 -0.013930873 -0.07933366 0.08653802 0.11616654 -0.12143555
0.021624008 -0.08694072 0.104072265 -0.059371714 -0.16192146 -0.114541985 -0.026230577 0.07798644
-0.004584263 0.01569091 0.15655802 -0.003075719 -0.08402375 -0.026147092 0.119063735 -0.013535425
-0.05843595 -0.04913421 -0.1326948 -0.12223374 0.08414162 0.0012384817 0.012238591 -0.045949187
0.13147673 0.14044668 0.15763038 0.13029347 -0.07476562 -0.027142577 0.22643735 0.02217142
-0.058541596 -0.025731571 0.19360718 0.067888916 0.07603829 0.111021176 0.098466024 -0.083544046
0.23565438 0.1054722 0.12922527 0.000747681 0.12098579 0.04312386 0.12808004 -0.025981724
-0.016186388 -0.05199746 0.11154092 -0.05602605 0.011392143 -0.09132224 0.11907541 -0.084323406
0.14283474 0.0070476173 0.21738864 0.0714494 0.06648697 -0.09155754 -0.11453542 0.08364651
-0.1294984 -0.0046807164 0.12722877 0.061963186 -0.07233423 -0.07017566 0.16850547 0.23299262
00000000: 8af9 84bd 4571 57be 3946 253e 4f87 1abe
00000010: 0530 18be df0d 76be 0c2f 33bd c247 1cbe
00000020: 1426 57bd 05fd 6ebe 9107 c13c 8c6c b8bc
00000030: 85ed d93d 47b7 f7bd b65e 15be 8c4b 55be
00000040: 74b1 c93d 334c 27be 4a44 153d 7953 89ba
00000050: 3396 c13d 76bc 1d3d 1dc5 ee3c 4db2 193d
00000060: 8355 61bc d0dd 153e b4fd 8ebc 4d16 ec3c
00000070: 9a87 c83d 1667 45be daf2 25bd db3d aa3d
00000080: 9961 d43c 78b4 b6bd 2e0a 0d3e a9ef d3bd
00000090: eaa6 12be 4ce8 22be 3e56 b83c f8fd 01be
000000a0: fe4a 2fbd 49d5 96be d89c 22bd 2089 7b3d
000000b0: ec27 cd3d ee20 8cbd f8f5 4bbb 5020 e5bd
000000c0: 7ad7 1bbd 1a92 13be 7512 7e3d 0d36 953d
000000d0: 7e51 7ebc 6bb3 213e faf4 c8bd c5a3 a9be
000000e0: b08a 54be 9ab8 d03a eef2 80bd 4a26 063e
000000f0: f914 d73d 6618 65be ed92 143d e814 a33b
00000100: 24b6 3abe 1ca2 4d3d 12fb 85bd d9e1 4dbd
00000110: 424f 1f3d dcc5 ef3d f822 1cbd 88cd a8bd
00000120: 0e8d a7bd b7eb 44be cdd2 6cbd 545c 423e
00000130: 8b65 a93d f711 313d b824 0a3a 55ad 2fbc
00000140: 767c b93d c258 a7bd 0c13 cebd f879 1ebe
00000150: a7a5 f4bc f31f c3bd 14ea 8abd 2bd1 36be
00000160: c30e 52bc 7d8b cb3d 2c82 0c3e 606b 593d
00000170: 78d4 b43d b641 3fbe 6e0c c5bd 65a9 f1bc
00000180: d3a8 84bd dc68 6fbd cb67 003e 27b6 703e
00000190: 107d 893e 6845 cfbc 31b6 133e 9e81 893c
000001a0: 275c 573e 4ea6 293e 415c 4f3e 655f 4d3d
000001b0: 18d3 0f3e 3c31 8f3d 402d bc3d edf6 c9bc
000001c0: 6830 873e 5882 483e 5f4b b2bd 709d 5b3d
000001d0: d508 5c3e 92ee 1abe 9450 353e 3703 933d
000001e0: a5f3 c33b e5b9 8fba 56ac f73d c9e5 b1bd
000001f0: 0f13 333d fe33 7e3c bb01 763d dd8e 3d3e
00000200: 112a 443e eca4 8d3d 3b90 1b3d 5276 4d3d
00000210: 0f39 9dbd 4afc 7e3d 3a66 f53d 99b1 b53d
00000220: a746 593e 269c 16be 6591 f13d 3041 b0bd
00000230: d049 c4bd 3116 f93c 9769 953d 3710 dc3d
00000240: 2fb5 6c3e 3326 04bd 7d80 da3d 9748 a43d
00000250: c295 5d3d b772 26bd e503 cf3c ba70 58bb
00000260: c354 07be 8958 a4bd 62fc c4bd 9d83 bc3d
00000270: 9a64 47bd 3f97 503d 0933 d53d 4a4b 113e
00000280: cd14 5fbd dee0 64be 25d6 15bd 5e30 a13c
00000290: 4f4e 97bd e3cf e63d 2d4b 8abc 033b 1c3c
000002a0: 032c 80bd c020 c13d 12f8 89bd a42d 693d
000002b0: 3e78 06be cfeb 873d 82db 5a3d 5c68 62bd
000002c0: 19c4 8a3e eb07 cdbd e81d 263d 513e 64bc
000002d0: b079 a2bd d83a b13d b9e8 ed3d 34b3 f8bd
000002e0: d524 b13c fa0d b2bd d723 d53d c12f 73bd
000002f0: bdce 25be fd94 eabd 82e1 d6bc 5bb7 9f3d
00000300: 9637 96bb 398a 803c bf50 203e 0192 49bb
00000310: a514 acbd 6d32 d6bc b0d7 f33d b0c3 5dbc
00000320: 895a 6fbd f440 49bd 25e1 07be af55 fabd
00000330: 7152 ac3d 8d54 a23a 5f84 483c 3735 3cbd
00000340: d6a1 063e 41d1 0f3e dc69 213e a76b 053e
00000350: b81e 99bd 1c5a debc 31df 673e d6a0 b53c
00000360: 50c9 6fbd 04cb d2bc f640 463e 5809 8b3d
00000370: f7b9 9b3d 125f e33d 8ea8 c93d 2419 abbd
00000380: 624f 713e cf01 d83d a153 043e 0600 443a
00000390: 66c7 f73d a5a2 303d 6a27 033e a0d7 d4bc
000003a0: 5199 84bc 4afb 54bd 916f e43d 927b 65bd
000003b0: 1ca6 3a3c 2807 bbbd cfdd f33d c0b1 acbd
000003c0: 4543 123e b3ef e63b 219b 5e3e 1054 923d
000003d0: 522a 883d 8582 bbbd 8c91 eabd dd4e ab3d
000003e0: 3b9b 04be b260 99bb 4248 023e 1ccd 7d3d
000003f0: f823 94bd 42b8 8fbd b38c 2c3e 9e95 6e3e

sequential/conv2d_2/Conv2D f4 [64, 3, 3, 32]
-0.03501872 0.1117988 0.10562741 -0.08218405 -0.16297185 -0.11528238 -0.06780048 0.080759175
0.023171203 0.029686727 0.08373068 0.056530517 -0.0037403998 -0.18611841 -0.038496077 0.15916671
0.014794484 3.886919e-05 -0.010938179 0.1028001 0.053740695 -0.17963508 0.062828526 0.03719593
-0.06654856 0.18316703 -0.043724798 -0.1436097 0.053879444 0.03222785 -0.0970527 0.14513475
-0.15032619 0.12037602 0.11621562 -0.04534254 0.10284521 -0.073785864 0.14727202 -0.12775853
0.0028299391 0.041746747 -0.02401686 0.0025578358 0.17485133 0.14122878 -0.0460737 -0.06250821
-0.078371435 0.03213665 0.042986423 0.16031179 0.0424301 -0.07447193 0.09291439 -0.15441592
-0.030479643 -0.017164871 -0.014782321 -0.1450208 -0.016670194 0.047093693 0.20559937 -0.09045686
0.021717327 -0.15489025 -0.1048873 0.11134566 -0.12945735 -0.10167164 0.0061119003 -0.021889957
0.05902271 -0.07969808 0.071611114 0.07489905 -0.09874616 -0.0641135 0.15199168 -0.056134406
-0.19287667 0.19036295 -0.0090680085 0.02790127 0.089378275 -0.004625187 -0.053992916 0.027951386
-0.03977311 0.13941331 -0.0053286194 0.18580396 0.074927 -0.050365962 0.0047315815 -0.17706446
-0.15075456 0.05195717 0.07250663 0.08445464 -0.15995345 0.030085739 0.059134867 -0.09221449
-0.12797405 -0.0041366294 0.06448756 0.086204834 0.12544774 0.074979626 -0.0060048574 0.10525708
0.10930531 -0.053715114 -0.13762698 0.086224854 -0.024457583 -0.09016853 -0.05390183 -0.13280082
0.004022691 0.14896876 -0.108983085 -0.107062474 0.021955222 -0.08870659 -0.05939594 0.06408493
-0.18230431 -0.015067159 0.10953546 -0.10220428 -0.08466708 -0.02553188 0.16868596 -0.024763282
-0.093472295 0.06325678 -0.13703072 0.10680361 -0.029556548 -0.1440447 0.024987986 -0.014902557
-0.034221075 0.08181484 0.2000546 -0.0341638 -0.023407947 0.04295777 0.052301146 0.057243675
0.099584386 0.1512727 0.08961842 -0.047447294 0.1526637 0.012746137 0.1406016 0.1091056
-0.050086703 -0.09368134 -0.09611803 -0.16775864 0.032268275 0.048344135 -0.029235244 -0.08891731
-0.118332006 0.17006634 -0.10673791 -0.11339962 -0.09104798 -0.11037338 0.025179705 0.1319012
-0.17428485 -0.17545202 0.061260793 0.10046013 -0.118250325 0.1534164 0.04636726 -0.1206406
0.0077531254 0.050757807 0.08263509 -0.09694259 -0.15386435 0.004608784 0.11696632 -0.23861547
0.12981386 -0.112818256 0.1676486 -0.12319736 -0.116909444 -0.0146364905 -0.12860093 0.015815224
0.08764485 -0.15380129 0.122644864 0.018342007 0.11335113 0.062606074 -0.09976708 0.19288945
-0.101826355 -0.15108398 -0.007528366 -0.101789124 -0.13770835 -0.08766917 -0.09146753 -0.16170411
0.08125435 -0.21096486 -0.037462275 0.04888533 -0.1877427 -0.04004752 0.08615894 0.056953035
0.15603037 0.053342212 0.07445896 -0.13809589 0.058776222 -0.1806121 0.092670865 -0.038075343
0.14106907 0.18833394 0.023601217 0.1968795 -0.068240136 0.16303965 0.04299243 0.10281539
0.08763713 0.13908581 0.04534589 -0.022884166 0.110827334 0.11072329 -0.044530425 0.16522664
-0.0055730296 -0.044774964 0.028124185 -0.039515298 0.056341544 0.13343798 0.15210137 -0.023844022
00000000: ca6f 0fbd c5f6 e43d 2f53 d83d 1c50 a8bd
00000010: 18e2 26be 2b19 ecbd fada 8abd 1165 a53d
00000020: 89d1 bd3c 9431 f33c fe7a ab3d 8b8c 673d
00000030: 7f21 75bb d395 3ebe 10ae 1dbd 99fc 223e
00000040: 9064 723c 7a07 2338 0c36 33bc dc88 d23d
00000050: 341f 5c3d 42f2 37be 3eac 803d c25a 183d
00000060: 9d4a 88bd 2390 3b3e c618 33bd 6c0e 13be
00000070: b1b0 5c3d 5a01 043d 91c3 c6bd 349e 143e
00000080: 1cef 19be b487 f63d 7402 ee3d 19b9 39bd
00000090: 82a0 d23d 0b1d 97bd 7ace 163e 22d3 02be
000000a0: 8076 393b a3fe 2a3d 02bf c4bc 5da1 273b
000000b0: 3a0c 333e 479e 103e c7b7 3cbd 4e04 80bd
000000c0: 3481 a0bd b8a1 033d 8812 303d c628 243e
000000d0: 2fcb 2d3d bd84 98bd e649 be3d 351f 1ebe
000000e0: 72b0 f9bc 589d 8cbc 8c31 72bc 5580 14be
000000f0: ee8f 88bc 51e5 403d a488 523e 7241 b9bd
00000100: 89e8 b13c 8d9b 1ebe 27cf d6bd 3209 e43d
00000110: 7890 04be 3939 d0bd 5646 c83b 9152 b3bc
00000120: ccc1 713d bf38 a3bd d9a8 923d ac64 993d
00000130: 6d3b cabd f04d 83bd b5a3 1b3e 31ed 65bd
00000140: 7681 45be 81ee 423e fc91 14bc 3491 e43c
00000150: f50b b73d e18e 97bb ad27 5dbd 4efa e43c
00000160: 21e9 22bd 5dc2 0e3e b39b aebb 6543 3e3e
00000170: 5473 993d 8a4c 4ebd 620b 9b3b 6350 35be
00000180: 675f 1abe 0bd1 543d 5b7e 943d 8ef6 ac3d
00000190: d6ca 23be 5e76 f63c 6737 723d f3da bcbd
000001a0: a10b 03be 908c 87bb 0e12 843d 298c b03d
000001b0: 5f75 003e eb8e 993d 65c4 c4bb 0691 d73d
000001c0: 76db df3d 6104 5cbd 16ee 0cbe a896 b03d
000001d0: 455b c8bc 47aa b8bd 2ac8 5cbd f0fc 07be
000001e0: c7d0 833b 448b 183e 8632 dfbd 9243 dbbd
000001f0: 70db b33c cdab b5bd 2849 73bd f63e 833d
00000200: fbad 3abe 3fdc 76bc 2154 e03d 7a50 d1bd
00000210: ef65 adbd 3c28 d1bc 03bc 2c3e 5edc cabc
00000220: 676e bfbd c58c 813d c851 0cbe dabb da3d
00000230: 9320 f2bc 7480 13be 9bb3 cc3c db29 74bc
00000240: 662b 0cbd 8a8e a73d 1ddb 4c3e 57ef 0bbd
00000250: 06c2 bfbc 7df4 2f3d ba39 563d 5878 6a3d
00000260: e6f2 cb3d 3be7 1a3e dd89 b73d 1858 42bd
00000270: df53 1c3e 2cd5 503c def9 0f3e c272 df3d
00000280: b727 4dbd 01dc bfbd 88d9 c4bd ecc8 2bbe
00000290: bd2b 043d 8004 463d c07e efbc 471a b6bd
000002a0: 0d58 f2bd df25 2e3e 6899 dabd 0f3e e8bd
000002b0: 5d77 babd 700b e2bd ab45 ce3c 1c11 073e
000002c0: ba77 32be b2a9 33be 99ec 7a3d 0abe cd3d
000002d0: 3a2d f2bd 3019 1d3e 99eb 3d3d 6b12 f7bd
000002e0: ee0d fe3b 6be7 4f3d 963c a93d d689 c6bd
000002f0: 9e8e 1dbe 4805 973b 0a8c ef3d 9d57 74be
00000300: eded 043e 420d e7bd 13ac 2b3e e64e fcbd
00000310: 386e efbd e4cd 6fbc f6af 03be ee8e 813c
00000320: 257f b33d 167e 1dbe 3b2d fb3d fa41 963c
00000330: a324 e83d 9d37 803d af52 ccbd d084 453e
00000340: 568a d0bd c2b5 1abe 83b0 f6bb d176 d0bd
00000350: 6b03 0dbe e58b b3bd 5453 bbbd c395 25be
00000360: ae68 a63d 2c07 58be 0b72 19bd fc3b 483d
00000370: 9f3f 40be de08 24bd 1974 b03d 9647 693d
00000380: 6dc6 1f3e 5d7d 5a3d f07d 983d 0269 0dbe
00000390: 56bf 703d 61f2 38be 39ca bd3d e4f4 1bbd
000003a0: 6974 103e 9dda 403e 5757 c13c c89a 493e
000003b0: 7cc1 8bbd def3 263e d518 303d e090 d23d
000003c0: 187b b33d 836c 0e3e 9dbc 393d 9377 bbbc
000003d0: 71f9 e23d e4c2 e23d 8965 36bd 2c31 293e
000003e0: f69d b6bb f465 37bd b164 e63c cbda 21bd
000003f0: 64c6 663d f7a3 083e 76c0 1b3e 8a54 c3bc
